Main/danceModel.pkl_10.npy (npy, 440 bytes, 1 tensors)

array f8 [45]
-0.4896686258592305 -0.7531180801385394 0.31690863200596403 0.7328513239366122 -0.5843143306311909 -0.5102239552996751 0.6806491932929021 -0.6141003503117829
-0.350135159499125 -0.8018953469196711 0.1947479489751869 0.7726337761863756 -0.6429082790024628 -0.6430667894912273 0.7844514085709887 -0.5215393876600901
-0.333837440315302 0.5608565580669999 0.8378581960920298 0.13147481418152931 0.7194343043612805 0.8174752442681308 0.437211053051155 -0.19580334368413257
0.5015963912010264 -0.7100680291840645 -0.21477765792057843 0.19920170307159424 -0.47814290201989557 -0.646595026662502 -0.7496544921695155 -0.7589799905400182
-0.6215517411129184 -0.7878883338270408 -0.6562596132810063 0.1312315682616757 0.7303062152510306 0.5016962289810145 0.17576061990060135 0.7827467204353121
0.12322791117434077 -0.33111654654693784 -0.781155427573465 -0.5220599247626143 -0.03054857155099941
00000000: 7554 7c13 bb56 dfbf 2b15 8716 8b19 e8bf
00000010: 2549 9224 3b48 d43f eb6a a49e 8473 e73f
00000020: a0a4 94f7 b3b2 e2bf 5bbb 3430 c153 e0bf
00000030: cdbc 27d1 e0c7 e53f d9a3 21c7 b5a6 e3bf
00000040: 829f ce4c 9d68 d6bf bbb4 3a6e 20a9 e9bf
00000050: 61df e733 80ed c83f c92c 1078 6ab9 e83f
00000060: 4595 1462 b492 e4bf f145 c0cd 0094 e4bf
00000070: 0ba2 23d7 391a e93f 356e b25e 73b0 e0bf
00000080: a969 15b6 975d d5bf efa2 d473 89f2 e13f
00000090: 8bd3 dcfd bbcf ea3f e523 94ad 2ad4 c03f
000000a0: 4e45 1b17 9b05 e73f be7a edd7 c128 ea3f
000000b0: cf7b 9311 44fb db3f e50f c97e 1510 c9bf
000000c0: 4000 00e0 130d e03f bffb 6896 e0b8 e6bf
000000d0: 0716 5794 d57d cbbf 0000 0000 717f c93f
000000e0: e55b bfaf e499 debf b8b1 a80d e8b0 e4bf
000000f0: a15c e56a 2bfd e7bf 3102 b667 9049 e8bf
00000100: 4d42 1b7a c0e3 e3bf 7cfc 5598 6136 e9bf
00000110: ec47 1729 1400 e5bf 047f f12e 32cc c03f
00000120: e532 d223 ab5e e73f e0ff ff3f e50d e03f
00000130: 1dea 32f1 527f c63f fb44 aad9 420c e93f
00000140: 5bbc 7248 dd8b bf3f 0b59 a574 0331 d5bf
00000150: 73ab d0aa 39ff e8bf 760b ed03 b7b4 e0bf
00000160: 7815 01ef 1f48 9fbf
