Main/danceModel.pkl_04.npy (npy, 8216 bytes, 1 tensors)

array f8 [9, 113]
000000 00 00 00 00 00 00 59 40 00 00 00 00 00 00 59 40
       100.0 100.0
000010 00 00 00 00 00 00 59 40 00 00 00 00 00 00 59 40
       100.0 100.0
000020 00 00 00 00 00 00 59 40 00 00 00 00 00 00 59 40
       100.0 100.0
000030 00 00 00 00 00 00 59 40 00 00 00 00 00 00 59 40
       100.0 100.0
000040 00 00 00 00 00 00 59 40 42 ba f9 4f 9a 29 3c c0
       100.0 -28.162510870426793
000050 8e 8a 29 10 d2 80 53 c0 00 00 00 00 00 00 59 c0
       -78.01282123619805 -100.0
000060 c4 9b 67 6c b9 03 4a c0 df c8 93 98 86 7c 53 c0
       -52.029096174802845 -77.9457150881967
000070 00 00 00 00 00 00 59 c0 eb a0 41 3e 85 fa 49 c0
       -100.0 -51.95719125942727
000080 00 00 00 00 00 00 59 c0 86 69 a1 25 8e 78 53 c0
       -100.0 -77.88367596400175
000090 10 42 83 12 33 87 53 c0 87 69 a1 25 8e 78 53 c0
       -78.11249220674677 -77.88367596400177
0000a0 90 8a 29 10 d2 80 53 c0 de b3 9f f9 9b 21 4e c0
       -78.01282123619808 -60.262572482089794
0000b0 c2 c0 cd 0f 0e c9 4f c0 e6 b3 9f f9 9b 21 4e c0
       -63.57074163004428 -60.26257248208985
0000c0 99 61 95 50 68 1e 4e c0 3d 4d fb 31 51 09 44 c0
       -60.237558434429225 -40.07279038210479
0000d0 8a 4f 98 af d3 25 44 c0 65 0d 05 97 a6 19 4e c0
       -40.29552264153524 -60.20039642092414
0000e0 e6 b3 9f f9 9b 21 4e c0 6e 6c 62 65 1a f6 53 c0
       -60.26257248208985 -79.84536108600307
0000f0 fb 1a 4e 1e ef 1d 4e c0 7b 19 3b c2 9c 7a 34 c0
       -60.23385981382122 -20.47895444815502
000100 e7 b3 9f f9 9b 21 4e c0 85 c5 2d 3a 1f 1e 4e c0
       -60.26257248208986 -60.23532798037471
000110 6e cc 4b 25 b3 13 4e c0 f9 1a 4e 1e ef 1d 4e c0
       -60.15390459252454 -60.233859813821205
000120 66 36 8d 78 1a b2 4a c0 00 00 00 00 00 00 59 c0
       -53.39143282790319 -100.0
000130 00 00 00 00 00 00 59 c0 00 00 00 00 00 00 59 c0
       -100.0 -100.0
000140 00 00 00 00 00 00 59 c0 00 00 00 00 00 00 59 c0
       -100.0 -100.0
000150 00 00 00 00 00 00 59 c0 00 00 00 00 00 00 59 c0
       -100.0 -100.0
000160 00 00 00 00 00 00 59 c0 00 00 00 00 00 00 59 c0
       -100.0 -100.0
000170 00 00 00 00 00 00 59 c0 00 00 00 00 00 00 59 c0
       -100.0 -100.0
000180 00 00 00 00 00 00 59 c0 00 00 00 00 00 00 59 c0
       -100.0 -100.0
000190 2a 86 60 41 5b dc 56 c0 c7 a3 aa c5 1a dc 56 c0
       -91.44306978632144 -91.43913404144324
0001a0 10 c9 bf c7 f8 b7 52 c0 58 10 82 fc 0b bd 40 c0
       -74.87455934266131 -33.47692829466604
0001b0 a7 32 65 2a 78 ca 40 c0 34 3a b2 c8 7a d9 56 c0
       -33.58179216328909 -91.39811913876548
0001c0 d2 ea 63 77 4f 68 1a c0 27 f1 e2 3d 78 3c 49 c0
       -6.601865640138117 -50.47241948681977
0001d0 cc 5b 36 c9 d1 0c 56 c0 85 f6 22 19 70 de 56 c0
       -88.20030432041602 -91.47559193052628
0001e0 1c ba 1d 98 b9 7a 4e c0 6e 9a d3 d5 40 7f 4e c0
       -60.958788885607845 -60.99416611511411
0001f0 00 00 00 00 00 00 00 80 59 61 74 bf 41 3a 49 c0
       -0.0 -50.45513146574621
000200 c8 4c 9b 45 33 a8 52 c0 be 5d ed 14 43 35 52 c0
       -74.62812938848504 -72.83221934490481
000210 be 5d ed 14 43 35 52 c0 00 00 00 00 00 00 59 c0
       -72.83221934490481 -100.0
000220 86 e3 a5 88 66 39 48 c0 bf 5d ed 14 43 35 52 c0
       -48.448441582680104 -72.83221934490483
000230 75 71 c9 7a 79 35 52 c0 be 5d ed 14 43 35 52 c0
       -72.83553952858149 -72.83221934490481
000240 93 1f 76 70 49 35 52 c0 8b 72 f1 af f9 50 48 c0
       -72.83260737929804 -48.63261985101152
000250 62 16 98 c4 59 51 48 c0 75 71 c9 7a 79 35 52 c0
       -48.63555200029511 -72.83553952858149
000260 ee a2 7a 62 56 07 37 c0 73 71 c9 7a 79 35 52 c0
       -23.028661875668085 -72.83553952858146
000270 44 6c 83 68 16 4b 48 c0 00 00 00 00 00 00 59 c0
       -48.586621345683426 -100.0
000280 00 00 00 00 00 00 59 c0 00 00 00 00 00 00 59 c0
       -100.0 -100.0
000290 00 00 00 00 00 00 59 c0 00 00 00 00 00 00 59 c0
       -100.0 -100.0
0002a0 00 00 00 00 00 00 59 c0 00 00 00 00 00 00 59 c0
       -100.0 -100.0
0002b0 d8 17 99 4b 04 2c 48 c0 a0 bc af 1e d1 cf 49 c0
       -48.343881082298765 -51.623569331940644
0002c0 6f ba 40 47 69 d2 49 c0 a4 72 b8 8d e1 5b 53 c0
       -51.643837839704126 -77.43564169895632
0002d0 00 00 00 00 00 00 59 c0 2a ba 40 47 69 d2 49 c0
       -100.0 -51.643837839703636
0002e0 73 e8 6e a2 72 3e 48 c0 00 00 00 00 00 00 59 c0
       -48.48787336745672 -100.0
0002f0 32 2f 54 ac 58 c1 49 c0 00 00 00 00 00 00 59 c0
       -51.5105185900742 -100.0
000300 f8 3e e0 e6 39 21 50 c0 b1 84 8b 63 15 58 53 c0
       -64.51915904902478 -77.37630547165715
000310 59 19 15 84 95 5a 53 c0 ef 4e 14 97 e3 9f 49 c0
       -77.41537572918368 -51.2491330002939
000320 9e bb 8c fc ef a5 49 c0 00 00 00 00 00 00 59 c0
       -51.296386307446696 -100.0
000330 a3 91 c6 8c 7f a6 49 c0 b8 49 40 02 ff a0 49 c0
       -51.30076751418826 -51.25778225077687
000340 00 00 00 00 00 00 59 c0 ce 31 3f 25 2e 2a 53 c0
       -100.0 -76.65906649752944
000350 c6 06 06 3d 3a c7 54 c0 e8 4e 14 97 e3 9f 49 c0
       -83.1129295882084 -51.24913300029385
000360 00 00 00 00 00 00 59 c0 f4 23 4d a0 d9 b1 49 c0
       -100.0 -51.38945392386077
000370 22 24 4d a0 d9 b1 49 c0 22 24 4d a0 d9 b1 49 c0
       -51.3894539238611 -51.3894539238611
000380 c0 c9 97 c6 ec 29 2a c0 00 00 00 00 00 00 59 40
       -13.081884580639667 100.0
000390 00 00 00 00 00 00 59 40 00 00 00 00 00 00 59 40
       100.0 100.0
0003a0 00 00 00 00 00 00 59 40 00 00 00 00 00 00 59 40
       100.0 100.0
0003b0 00 00 00 00 00 00 59 40 00 00 00 00 00 00 59 40
       100.0 100.0
0003c0 00 00 00 00 00 00 59 40 00 00 00 00 00 00 59 40
       100.0 100.0
0003d0 00 00 00 00 00 00 59 40 00 00 00 00 00 00 59 40
       100.0 100.0
0003e0 00 00 00 00 00 00 59 40 00 00 00 00 00 00 59 40
       100.0 100.0
0003f0 00 00 00 00 00 00 59 40 00 00 00 00 00 00 59 40
       100.0 100.0
000400 00 00 00 00 00 00 59 40 00 00 00 00 00 00 59 40
       100.0 100.0
000410 00 00 00 00 00 00 59 40 00 00 00 00 00 00 59 40
       100.0 100.0
000420 00 00 00 00 00 00 59 40 00 00 00 00 00 00 59 40
       100.0 100.0
000430 08 6b ba 57 8c 6d 54 c0 f7 86 2f ee 4c d3 50 c0
       -81.71169083790676 -67.30157045975999
000440 00 00 00 00 00 00 59 c0 00 00 00 00 00 00 59 c0
       -100.0 -100.0
000450 a7 21 60 53 42 4b 4b c0 bf d2 f6 5f 5d 50 4b c0
       -54.58796159929198 -54.627849574584154
000460 9b fa 24 60 e3 75 54 c0 28 79 45 61 0e 75 54 c0
       -81.84200290309165 -81.8290026834917
000470 70 2f 66 74 89 0d 34 c0 e4 6a ba 57 8c 6d 54 c0
       -20.052878642032226 -81.71169083790625
000480 f8 82 7e 2f 59 f3 51 c0 85 dc 9e ad 0e 6f 54 c0
       -71.80231845240257 -81.7352708865529
000490 c1 4d d7 ea 3f 79 54 c0 40 c6 25 5d 1d 73 54 c0
       -81.89452620530848 -81.79866722763927
0004a0 ad e6 4e 8c 5a 7a 54 c0 21 cf c2 b8 56 4c 53 c0
       -81.91177661614593 -77.19279307388616
0004b0 00 00 00 00 00 00 59 c0 00 00 00 00 00 00 59 c0
       -100.0 -100.0
0004c0 00 00 00 00 00 00 59 c0 00 00 00 00 00 00 59 c0
       -100.0 -100.0
0004d0 00 00 00 00 00 00 59 c0 00 00 00 00 00 00 59 c0
       -100.0 -100.0
0004e0 00 00 00 00 00 00 59 c0 00 00 00 00 00 00 59 c0
       -100.0 -100.0
0004f0 00 00 00 00 00 00 59 c0 00 00 00 00 00 00 59 c0
       -100.0 -100.0
000500 00 00 00 00 00 00 59 c0 00 00 00 00 00 00 59 c0
       -100.0 -100.0
000510 00 00 00 00 00 00 59 c0 00 00 00 00 00 00 59 c0
       -100.0 -100.0
000520 00 00 00 00 00 00 59 c0 00 00 00 00 00 00 59 c0
       -100.0 -100.0
000530 00 00 00 00 00 00 00 80 21 15 85 7f d2 3c 57 c0
       -0.0 -92.95034778591481
000540 00 00 00 00 00 00 59 c0 d7 9e 24 49 4f 75 50 c0
       -100.0 -65.8329642160055
000550 30 26 b1 6c 4e f7 2f c0 00 00 00 00 00 00 59 c0
       -15.983020207047133 -100.0
000560 00 00 00 00 00 00 59 c0 00 00 00 00 00 00 59 c0
       -100.0 -100.0
000570 00 00 00 00 00 00 59 c0 77 16 df ca 6e c6 4d c0
       -100.0 -59.55025611775357
000580 07 9c 50 04 bd 6b 50 c0 00 00 00 00 00 00 59 c0
       -65.683411673279 -100.0
000590 00 00 00 00 00 00 59 c0 df 9c 85 97 ee ea 55 c0
       -100.0 -87.67081249282954
0005a0 f4 6c 76 67 ce 1f 58 c0 59 6a d9 8b 50 3f 4d c0
       -96.49697290959358 -58.49464557758319
0005b0 d1 32 6b 11 d1 ea 55 c0 9f 41 32 d0 d8 e8 55 c0
       -87.66901050060848 -87.63823323161931
0005c0 d2 32 6b 11 d1 ea 55 c0 da 9c 85 97 ee ea 55 c0
       -87.6690105006085 -87.67081249282947
0005d0 55 f4 a7 d9 2a f7 56 c0 ea 69 d9 8b 50 3f 4d c0
       -91.86199036981391 -58.4946455775824
0005e0 00 00 00 00 00 e0 55 c0 b2 e7 6e 7c 64 5c 56 c0
       -87.5 -89.4436331828172
0005f0 9e 41 32 d0 d8 e8 55 c0 4b 2a 53 c4 20 f0 56 c0
       -87.6382332316193 -91.75199993249514
000600 00 00 00 00 00 00 59 c0 00 00 00 00 00 00 59 c0
       -100.0 -100.0
000610 00 00 00 00 00 00 59 c0 00 00 00 00 00 00 59 c0
       -100.0 -100.0
000620 00 00 00 00 00 00 59 c0 00 00 00 00 00 00 59 c0
       -100.0 -100.0
000630 00 00 00 00 00 00 59 c0 bb 38 10 f2 80 05 4e c0
       -100.0 -60.042997606201844
000640 00 00 00 00 00 00 59 c0 00 00 00 00 00 00 59 c0
       -100.0 -100.0
000650 00 00 00 00 00 00 59 c0 00 00 00 00 00 00 59 c0
       -100.0 -100.0
000660 00 00 00 00 00 00 59 c0 b4 37 10 f2 80 05 4e c0
       -100.0 -60.042997606199975
000670 00 00 00 00 00 00 59 c0 00 00 00 00 00 00 59 c0
       -100.0 -100.0
000680 00 00 00 00 00 00 59 c0 c9 c7 ef 0d 7f fa 53 c0
       -100.0 -79.91400478759819
000690 00 00 00 00 00 00 59 c0 00 00 00 00 00 00 59 c0
       -100.0 -100.0
0006a0 80 f4 8f 82 b1 60 54 c0 af 24 97 e4 72 5f 54 c0
       -81.51083435114015 -81.4913875080117
0006b0 00 00 00 00 00 00 59 c0 e4 11 f6 f0 8e b3 3f c0
       -100.0 -31.70139986045423
0006c0 f6 1a aa a4 4b 5b 54 c0 00 00 00 00 00 00 59 c0
       -81.42649189578864 -100.0
0006d0 5c 8b 3d fb d8 e5 54 c0 a0 8b 3d fb d8 e5 54 c0
       -83.59136849413102 -83.59136849413198
0006e0 00 00 00 00 00 00 00 80 00 00 00 00 00 00 59 c0
       -0.0 -100.0
0006f0 44 83 6e a4 98 93 3f c0 d2 88 c1 fb fc cb 3f c0
       -31.57654788683 -31.79682897067034
000700 e8 ad 77 6e d8 a6 3f c0 00 00 00 00 00 00 00 80
       -31.65173998281344 -0.0
000710 00 00 00 00 00 00 59 40 44 cf 71 af cc dd 51 40
       100.0 71.46561800111982
000720 44 cf 71 af cc dd 51 40 6c 9a d0 8f 19 d2 51 40
       71.46561800111982 71.28281016703994
000730 44 cf 71 af cc dd 51 40 44 cf 71 af cc dd 51 40
       71.46561800111982 71.46561800111982
000740 6c 9a d0 8f 19 d2 51 40 00 00 00 00 00 00 59 40
       71.28281016703994 100.0
000750 18 8e 97 22 9a e4 51 40 f2 42 b2 27 33 62 41 40
       71.57190766144083 34.76718612865615
000760 d5 d3 60 82 31 0f 4a 40 c3 9c 8e 90 33 14 4a 40
       52.11869840362457 52.15782362903112
000770 f4 c2 d2 1e 06 62 41 40 00 00 00 00 00 00 59 40
       34.765811779890925 100.0
000780 00 00 00 00 00 00 59 40 e5 65 39 42 d0 68 41 40
       100.0 34.81885555079115
000790 5f 43 b2 27 33 62 41 40 34 86 1f 5d 16 1f 4a 40
       34.767186128656924 52.24286998786229
0007a0 00 00 00 00 00 00 59 40 d5 d3 60 82 31 0f 4a 40
       100.0 52.11869840362457
0007b0 35 86 1f 5d 16 1f 4a 40 20 af 19 12 88 b7 3b 40
       52.2428699878623 27.716920024176147
0007c0 26 10 11 e7 58 1f 57 40 38 5b d9 8c e9 f0 3b 40
       92.489801184333 27.941063693109044
0007d0 41 3c 92 d2 40 73 53 40 63 d3 8d 96 52 87 32 40
       77.80083145409391 18.528603944421217
0007e0 95 d7 18 04 c5 a9 32 40 ad 9a f2 6f 41 6a 53 40
       18.663162475647898 77.6602439755613
0007f0 21 af 19 12 88 b7 3b 40 00 00 00 00 00 00 59 40
       27.71692002417615 100.0
